audio_separation_model.pth (torch, 526482 bytes, 16 tensors)

encoder.0.weight f8 [16, 2, 3]
-0.0929561911812072 0.0023677779633363948 -0.2676253840908926 -0.0211050513763803 -0.010186414900954106 -0.25433621390628863 -0.2997026400138596 -0.09970704971704764
0.17730016245911573 -0.19186475910651718 -0.010286415147509947 0.2193090649396393 0.18154124821804163 -0.3154118552072604 0.3272954140336487 -0.3047197072189008
-0.1720942403190844 0.15898962732443997 -0.09908802080790301 0.12986353946531273 -0.28113302776425625 -0.016991092755359503 -0.05892737197859073 -0.11342817686126395
-0.0038769815263919724 0.22897962355229004 -0.3203056876471191 0.09301327595279679 0.031708978593889464 0.0020940271084856324 -0.16696801888468185 0.14492766938723106
0.27039140447663407 0.07115006571755055 0.15685495972231725 0.2776581393248513 -0.2522341626319808 0.2685972953308178 -0.22034148345591786 0.16946851923980735
-0.23402047546541285 0.20283548484774264 0.11260259132999974 0.10644721949906137 -0.14509907449044712 -0.22585349774288815 0.1388341607270753 -0.15245066762040485
-0.04638901661656745 0.012446412703623452 -0.2878641641804187 -0.17595785902319364 0.05006060204266562 -0.24165292279212713 0.3018196052684219 0.3212947411657067
0.0644899569232287 0.2115885482513037 0.026394573990093463 0.15945554693944344 0.047494079266343615 -0.2733245141303363 -0.03711778849454449 -0.08041767910158147
-0.22384498256308802 -0.2168549949968888 0.22495475769674775 -0.18794100294886978 0.07149822865088357 0.2702536796186402 0.04136435902293346 -0.12456396166989143
0.22631568272683242 0.2989066317077944 -0.18066123001246254 0.017265020145277584 -0.09112943128676454 -0.06664964584735271 0.3314603188802327 0.04315666042468129
-0.2981575327612271 -0.304422990370661 0.08549473726868272 -0.21682912252792572 0.26614371325018754 -0.32881755661085066 -0.021650965505404685 0.157924940817058
-0.18641825253091465 0.17469353602481585 0.3194531858425807 -0.09728072665545776 -0.15070222839167058 0.21844422623245593 -0.26721772141092076 0.09990787658390748
00000000: 9581 1519 facb b7bf b8c3 551d 9765 633f
00000010: 17fd 0f38 c620 d1bf 608f c405 909c 95bf
00000020: 1799 e776 9ddc 84bf 419f 3a66 0b47 d0bf
00000030: d099 58fb 532e d3bf 3422 b7b5 6686 b9bf
00000040: 902f ab8f c5b1 c63f 4607 cf40 068f c8bf
00000050: 038c 3645 0b11 85bf 5ce8 d0c6 5112 cc3f
00000060: 585a fc5d be3c c73f 1bb2 b834 b52f d4bf
00000070: 72f0 d976 68f2 d43f 81eb 3c16 8780 d3bf
00000080: 290e 001f 2f07 c6bf 4f7f e1a8 c559 c43f
00000090: 7f99 cb20 d55d b9bf 2121 7953 5e9f c03f
000000a0: 0fab 0462 15fe d1bf a68d d4ee 1c66 91bf
000000b0: fa7b f97e ba2b aebf 7164 1006 a109 bdbf
000000c0: 5e1a 9e9b 9ec2 6fbf cfc1 4d4d 344f cd3f
000000d0: e0b2 4a6d e37f d4bf 4ca3 4fd2 b7cf b73f
000000e0: 74c3 19c4 283c a03f 390f 553e 7e27 613f
000000f0: 1937 4b42 355f c5bf 42de 2668 fd8c c23f
00000100: 892f d6bf 174e d13f 2f79 5d05 e436 b23f
00000110: 1183 1cc5 d213 c43f a694 f7a4 26c5 d13f
00000120: 270d dcc1 9a24 d0bf c85a cfb5 b230 d13f
00000130: f098 b254 2634 ccbf 1113 ebf9 24b1 c53f
00000140: ddf1 5b08 62f4 cdbf 7dd6 f15e 83f6 c93f
00000150: 310b 35ff 85d3 bc3f 63a4 7ffe 1f40 bb3f
00000160: 2ce4 ce41 9b92 c2bf d217 3f75 c4e8 ccbf
00000170: 7ff8 f159 51c5 c13f b56c d7e3 8083 c3bf
00000180: 1d05 861a 4dc0 a7bf fedc 1d3c 817d 893f
00000190: f418 b6d0 5d6c d2bf 2949 fd80 c985 c6bf
000001a0: 72c1 2e11 8ba1 a93f f8ff 2fa4 7bee cebf
000001b0: 1cd9 7a2d 0351 d33f 63be 6bd1 1790 d43f
000001c0: 02dd e7ef 6982 b03f 9c46 7963 5515 cb3f
000001d0: fa34 51e0 2d07 9b3f 61a6 a213 0a69 c43f
000001e0: 3db8 67da 2451 a83f f2a1 581a 267e d1bf
000001f0: ee29 5e4f 1a01 a3bf a7f2 c2c5 4096 b4bf
00000200: 33b7 bdcf f3a6 ccbf 5931 be8b e7c1 cbbf
00000210: ab8d b147 51cb cc3f 3a15 9f66 730e c8bf
00000220: 9c08 c739 b54d b23f 767c e516 d64b d13f
00000230: d16e 7292 b52d a53f bde3 a17d 6ce3 bfbf
00000240: af1b f18b e9f7 cc3f 0485 ef47 4921 d33f
00000250: 2e82 473d e81f c7bf 0f14 8ee3 ebad 913f
00000260: 6069 1427 4254 b7bf 1351 3481 f30f b1bf
00000270: 07ca 6057 a536 d53f b6d5 413a a118 a63f
00000280: 43fe 1055 0315 d3bf 84b8 f290 aa7b d3bf
00000290: 1f92 8cac fbe2 b53f eff5 0983 0ec1 cbbf
000002a0: 0384 1ca4 7f08 d13f 80a1 ffca 580b d5bf
000002b0: 0014 17b3 ab2b 96bf 9018 046c e236 c43f
000002c0: 32b6 ffa4 8ddc c7bf 984b 0698 5b5c c63f
000002d0: 5100 73c6 eb71 d43f aa2c 84c3 63e7 b8bf
000002e0: b832 30eb 354a c3bf e78e d5fb faf5 cb3f
000002f0: 5fc7 975b 181a d1bf 746a 8a06 9093 b93f

encoder.0.bias f8 [16]
0.00958376578684039 0.009130092207123155 0.010490471134281417 0.010773235945813728 0.010637640448746594 0.010134426090791439 0.009180934785107654 0.00894511857832396
0.008909203828169381 0.009255313629749472 0.010996305551060166 0.01116570184657563 0.009805990841938263 0.011375779127713028 0.009175948821070866 0.011292710570515854
00000000: 3f1a 0445 a7a0 833f 0e31 833b ccb2 823f
00000010: 5eed 8733 077c 853f 9292 7940 4710 863f
00000020: 3dfa abee 2fc9 853f 144b fda4 5bc1 843f
00000030: d4a1 3035 74cd 823f 589e 057e d151 823f
00000040: b663 9a18 fd3e 823f 66fc d42a 73f4 823f
00000050: 57bf bf25 3b85 863f 08b8 2422 0bde 863f
00000060: d49b c4cf 2915 843f bb74 8f3a 2f4c 873f
00000070: bf28 c500 d7ca 823f 0821 abf4 a120 873f

encoder.2.weight f8 [32, 16, 3]
0.036854355556548216 -0.1094309669222522 -0.06358124601156882 -0.08228714734896456 -0.15440555374657094 -0.14174611795033248 -0.06440241072781452 -0.10300635792231155
-0.19701537954006196 -0.15003834692738854 0.19564718843347173 0.02173266080944791 -0.014464812650800967 -0.07185403758612835 0.015211106892161003 0.06622008221038174
0.06942678107831123 0.05579412220443974 -0.07969082900236524 -0.13166171513119088 0.1832901115844518 -0.18634541588313083 -0.00047467409818846616 -0.008256898371239382
-0.021367794966189596 0.18729022652271166 0.1885048719255958 0.14133468199827726 0.1970874480802253 -0.1996320744608653 -0.04362253572381411 -0.16425439620468388
0.08577935831894477 0.0798058883378865 -0.05764391482717711 0.07602831810766386 0.08836010979384142 -0.04954641440852502 0.06707575853754337 -0.1764379370010365
-0.0738676585194726 -0.09722574883396218 -0.0434969473903364 0.19652972095480614 0.06671768059810773 -0.05156126972659192 0.20326255839373414 0.1599229553182472
-0.08900094707051014 -0.06766250413368984 -0.13939989474685083 0.052630008453335896 -0.08805980445104729 -0.18323988331588417 0.09848553101634336 -0.08736662184837632
-0.18639248956327503 -0.07381118540941305 0.1878603680386179 0.11804851432684114 0.19514022387269717 -0.09890076203031292 0.13997266421980548 0.1550543574798276
0.12964469889566851 0.04918211641253075 -0.16394740969433771 -0.06255155733901348 0.0498845275726436 -0.13395312510379814 -0.04040842064839838 -0.18740201755722816
-0.11428826997218676 0.20010431078858143 -0.13781995877605396 -0.15130319483923763 -0.11954722491569106 -0.16048205545906016 -0.11513730810861288 -0.013829698836783142
0.12923627240212113 -0.18555416086243234 0.05329317538814378 0.07823173542671792 0.18847992233987612 -0.10295506553939268 0.16628725407849837 0.150055984759578
0.18792947363024604 0.18346732510726527 0.0058219555555512675 -0.1814515713326142 0.12158621401193367 -0.11614877035400668 0.11037387282846886 0.08929751400244308
0.05806687115889629 0.10095081522482593 0.20322740423460794 0.0388845118907777 -0.09526378501035875 0.03360094160098071 -0.05147925932527278 -0.04144695308304778
0.05488540178871532 -0.11395593777640024 0.17347033170252774 0.012393472932767323 -0.1594634679163336 -0.08617603002257859 -0.11809850909987918 0.020238403305570064
-0.12572795398945955 -0.05608315336872325 0.09484080524758715 0.10415030409557413 -0.11972386590417369 -0.18512650034367414 -0.11136917991535819 0.044054621280236766
0.06850135942707575 0.03459239699106487 -0.021674928952896175 -0.0387968421728042 0.032618353882666186 -0.16174505615388862 -0.06461437337546115 0.08424152425350663
0.13119893338829344 -0.13206910886876158 0.12022610667512496 -0.1070925509722593 -0.17099971658383536 -0.10875466364171398 0.0438783667751714 0.18397372832381823
-0.07813472500898827 -0.19610063707804354 -0.1293324498291132 -0.051805168585330956 0.17870629546497196 -0.09064481696561821 0.10756611929203423 -0.06851412662169212
-0.070320433523461 -0.11539462750735936 0.03050252237550616 -0.13750104676806404 0.15147030846208792 -0.13086404319588052 -0.07480119775144241 0.035750425420615954
-0.10537518873565017 -0.18744534483914588 -0.1985896853915058 0.17742829244468686 0.09172476022662471 0.08152488901210471 -0.08960019725773258 -0.14554971014987764
-0.011447496504136229 0.025320909403474513 -0.043526040739435855 0.12271882381907413 0.008309357209703393 0.07455278212501305 0.062314443641608534 -0.17860308572975292
0.0300810228402645 0.06606812280731532 0.11833383122416613 0.09578991585217787 0.2001538704060569 0.15781174838154907 -0.07387769671250653 0.05579700449065898
-0.09378421219687069 -0.17647620106486853 0.09180654447455242 0.016250127212170864 0.04575794376550394 0.0900057617477864 0.08164193221739392 0.15936645959335327
-0.07209021289501671 0.1886811516630228 -0.021385397125032492 0.09319735410578824 0.07518565253997761 -0.14697968954611595 0.07001397663684748 -0.11328296423513862
0.05762053101036011 0.11034434223246756 0.05695601350038712 0.12477689361383795 0.051627006291761236 0.06146677818611647 0.12747337171421733 -0.1638846542979122
-0.11413508431307771 -0.1608722545765709 0.10679550441723729 -0.09950570774040518 0.19467305793016512 -0.059267637015061776 -0.008014027152308504 0.18976448415264902
-0.14122393719630114 -0.054642137583894336 0.028198430776982267 0.00840266421694122 0.08474490386808764 0.17427518720328625 0.1825351199162316 -0.18318993956068416
-0.1994842958756501 0.054271984144969476 0.19922422252855776 0.17711611054291035 -0.041069612203780505 -0.003924198310907701 0.06825598151359479 0.11529554780970017
0.10202237188385838 0.0027655460203817837 -0.02818451982227306 -0.16809976090377973 0.04043646773769229 0.2004305547167615 -0.0402885663487879 0.14994654161430485
-0.07055521086643654 0.09796345389799345 0.0543679542237203 -0.03696984890667649 0.1596165135356715 -0.15010321969872067 -0.11627490846100684 -0.04117790228442813
0.10315708683483951 -0.010275668284548322 0.15542400928048936 0.18757897742866217 -0.006712064806230156 -0.0583011182703837 -0.15195802161102598 0.16071942084255447
-0.04389488478278867 0.08148618135679567 0.13182235288208255 -0.0014723335336872152 0.08985602866581244 0.14631942466557454 -0.05637077100747376 -0.04302547838535314
00000000: 4a3b a9f7 92de a23f 81c9 19f8 aa03 bcbf
00000010: d334 424c dc46 b0bf 1eb4 be3e c510 b5bf
00000020: 00c6 d4a9 8fc3 c3bf de3f 779e bc24 c2bf
00000030: b209 dc27 ad7c b0bf 2470 8eea 9f5e babf
00000040: ff7f f7c9 cc37 c9bf 027a 99e0 7434 c3bf
00000050: 6424 f091 f70a c93f bfff b92d 1641 963f
00000060: a341 394a ba9f 8dbf 149a 84b5 0665 b2bf
00000070: 8a32 1a35 0027 8f3f ed98 6e9f ccf3 b03f
00000080: 77a9 321a f4c5 b13f 57ac 5a14 0c91 ac3f
00000090: a035 5b40 9e66 b4bf 7dd6 4f84 4ada c0bf
000000a0: 8ebb 77e5 0c76 c73f e120 7da5 2ada c7bf
000000b0: 0ac0 5cba b51b 3fbf de56 c423 fee8 80bf
000000c0: 2809 4572 70e1 95bf e042 e34a 20f9 c73f
000000d0: 234f 077a ed20 c83f 8890 7c3e 4117 c23f
000000e0: 0574 fa57 293a c93f 0162 8537 8b8d c9bf
000000f0: acd0 9a68 b155 a6bf 2130 f6bd 4906 c5bf
00000100: ffd7 a6d2 a2f5 b53f d17f 70a0 286e b43f
00000110: 6e05 fed1 8083 adbf 08a1 d783 9776 b33f
00000120: 85e4 d5a5 c49e b63f 2f90 09cb 255e a9bf
00000130: 9bec 457d e02b b13f 78b9 98b0 8495 c6bf
00000140: 3ebf 92a9 fde8 b2bf 982b 9263 c9e3 b8bf
00000150: 23df 085d 3b45 a6bf e4b0 18ca e227 c93f
00000160: 5cdd 3bf0 6814 b13f a090 6e1e 3d66 aabf
00000170: 56b4 66ec 8104 ca3f 755b 7cfb 5a78 c43f
00000180: 2b1a fb1c c4c8 b6bf 036f 6b72 5452 b1bf
00000190: de74 8012 dbd7 c1bf b3c8 300a 52f2 aa3f
000001a0: 759b 355c 168b b6bf e910 158d 6774 c7bf
000001b0: d629 d806 5936 b93f 6acc 99af a85d b6bf
000001c0: 0478 7287 b5db c7bf 7394 6933 4ae5 b2bf
000001d0: 9e5e 78fc ce0b c83f 270b 606c 6d38 be3f
000001e0: d16b d5d7 5afa c83f 763c 7872 8f51 b9bf
000001f0: 1c3b 94cf 9fea c13f 1a34 3d39 d2d8 c33f
00000200: 27a7 ed8e 3298 c03f bb6b 14fb 652e a93f
00000210: 0b57 738d 3afc c4bf 15be 15fd 6003 b0bf
00000220: de77 00fd 768a a93f 9647 c241 6025 c1bf
00000230: a6f4 559a 69b0 a4bf 5f6d 4e10 cafc c7bf
00000240: 6fd2 d8fd fe41 bdbf ea12 509f 049d c93f
00000250: aef0 d69b 15a4 c1bf 21b3 ce30 e75d c3bf
00000260: b227 579d a59a bebf 9550 e50d ad8a c4bf
00000270: 6f3f e07c a379 bdbf 5f77 bdc1 be52 8cbf
00000280: 8547 b66d d08a c03f 3b3b 451e 3dc0 c7bf
00000290: 5abd c83a 3e49 ab3f a1c5 2ab9 fe06 b43f
000002a0: 7181 332f 1c20 c83f 9e00 735f 435b babf
000002b0: 2220 0197 e648 c53f 6244 8ed5 0835 c33f
000002c0: ac23 99af 120e c83f ec32 9c78 db7b c73f
000002d0: 4794 5b4b c3d8 773f c237 571a ce39 c7bf
000002e0: de61 d32c 4620 bf3f 5d1d 2402 edbb bdbf
000002f0: 2e92 214e 7641 bc3f 252d 41ae 33dc b63f
00000300: fe8d 37e1 f0ba ad3f 9e29 e5a1 e9d7 b93f
00000310: ac57 6b07 5b03 ca3f c29b c8b5 abe8 a33f
00000320: abd7 1c19 3563 b8bf 5100 9582 2434 a13f
00000330: f4dd 724e 7d5b aabf 0d65 05f8 8838 a5bf
00000340: 49b3 6b7b f019 ac3f 3945 ef61 372c bdbf
00000350: 628b be9c 4634 c63f 9fd6 70c7 bf61 893f
00000360: 38bf cd85 4c69 c4bf 1a66 a5de a10f b6bf
00000370: b053 4a32 b43b bebf ca60 4841 60b9 943f
00000380: c7f2 4985 da17 c0bf 0d83 265b eeb6 acbf
00000390: 745c ddac 7c47 b83f 787d f525 98a9 ba3f
000003a0: feee 9b28 39a6 bebf 77ac 4ca4 39b2 c7bf
000003b0: 4ed0 84c9 b082 bcbf d4c6 45cb 538e a63f
000003c0: 6c88 781a 4e89 b13f 80a3 883b 18b6 a13f
000003d0: 4cb6 fbdb f331 96bf 1efa a300 2edd a3bf
000003e0: cdce 5956 5ab3 a03f c63d 3cdf 0fb4 c4bf
000003f0: 8fc7 7f4c 918a b0bf f14d a23f da90 b53f
00000400: 671e 166c 20cb c03f e19b b3fb a3e7 c0bf
00000410: a489 4b5c 23c7 be3f 6d31 12dc 6a6a bbbf
00000420: eb29 2d97 51e3 c5bf abee a07b 58d7 bbbf
00000430: fc3d 9aac 3977 a63f a5ab 3c7d 738c c73f
00000440: 7c76 9828 a300 b4bf 8ecb 7c5f d319 c9bf
00000450: ddee 2939 f78d c0bf 47ef ac01 3586 aabf
00000460: 4c41 4e0f d9df c63f 1053 6bac 7f34 b7bf
00000470: fb54 8404 7489 bb3f ba77 274d 248a b1bf
00000480: 6b4b 391a 8500 b2bf cd38 4797 808a bdbf
00000490: 7177 31a0 0d3c 9f3f d36d 8461 a299 c1bf
000004a0: 0a71 940a 6163 c33f 60d3 df28 27c0 c0bf
000004b0: 6d48 0bda 2b26 b3bf d7cf ff37 e14d a23f
000004c0: 1df0 6d4d def9 babf bc8f ef84 35fe c7bf
000004d0: 4c2b 0a06 636b c9bf d9af b764 f8b5 c63f
000004e0: b223 681d 467b b73f fdf4 1dac d0de b43f
000004f0: 76e6 efdc 09f0 b6bf c59b 8476 5fa1 c2bf
00000500: 7dc8 d9f8 c871 87bf 7aee 2b77 b9ed 993f
00000510: 8b1f 0093 0b49 a6bf fd10 e836 806a bf3f
00000520: 464e bb0b 7f04 813f a980 0d21 e415 b33f
00000530: 7fae 04c3 ade7 af3f c044 1646 77dc c6bf
00000540: a510 5145 8fcd 9e3f d7f9 c32a d7e9 b03f
00000550: dc40 1e3f 204b be3f 7727 df1b b085 b83f
00000560: 43ea c75b a49e c93f 3796 1ce5 2c33 c43f
00000570: afb5 4813 a6e9 b2bf 3619 01cb 6c91 ac3f
00000580: 6645 44fc 3d02 b8bf 7547 0cac c596 c6bf
00000590: 72b4 133a a280 b73f f77b ba93 dfa3 903f
000005a0: 7595 02d0 956d a73f 0887 281b 9e0a b73f
000005b0: e91f db54 7ce6 b43f 6831 04c2 1e66 c43f
000005c0: 10eb be12 8174 b2bf 8cd4 e137 b426 c83f
000005d0: 9a52 0eb5 0de6 95bf 8145 f523 c8db b73f
000005e0: aca1 c9ee 5d3f b33f 386e e3ff 3ad0 c2bf
000005f0: 0f0d eb9b 6fec b13f b877 95c2 1c00 bdbf
00000600: 7d09 8930 7080 ad3f 76e4 2fdd 863f bc3f
00000610: 8ce2 96ae 5629 ad3f 0a2f 5ee5 60f1 bf3f
00000620: c51c 3adf da6e aa3f 6220 33d4 9278 af3f
00000630: 0fcc 4f25 0c51 c03f 604d 431f 2cfa c4bf
00000640: 4f6c 73f6 f437 bdbf 82bd 1e48 7697 c4bf
00000650: a0f4 d43e f356 bb3f e4a7 82c0 3479 b9bf
00000660: b576 9cf8 0beb c83f 41bc 61e5 5358 aebf
00000670: cf34 3a84 a869 80bf 4460 b0de 334a c83f
00000680: 01d2 d53f a013 c2bf 3d0e d0e3 0dfa abbf
00000690: 8450 f1a7 0ce0 9c3f f197 1680 6a35 813f
000006a0: c0b8 9d8e d7b1 b53f 1b6d c53a a64e c63f
000006b0: 0bb1 3491 4f5d c73f 0747 af97 c472 c7bf
000006c0: 1cfe 6c8f b388 c9bf c0bc fb99 89c9 ab3f
000006d0: 2c64 2ae8 2d80 c93f d531 309f bdab c63f
000006e0: 959d 8c82 1307 a5bf daab 88f6 d112 70bf
000006f0: 0f76 5b58 3979 b13f ae91 374f 0284 bd3f
00000700: ec96 b35e 231e ba3f b8e6 d136 c5a7 663f
00000710: 547d 8f1b 67dc 9cbf 1f09 c6ff 4a84 c5bf
00000720: 4390 ffb4 16b4 a43f 2756 d05a b5a7 c93f
00000730: 96d5 bdf5 b3a0 a4bf efdc 30c2 7231 c33f
00000740: a6d5 3b03 e80f b2bf 21f1 b106 2214 b93f
00000750: 5ebf aed2 1dd6 ab3f 7906 fc47 b6ed a2bf
00000760: 9fc4 c45c 506e c43f f1ad d011 9536 c3bf
00000770: 8f77 2f41 31c4 bdbf 274e 421f 4515 a5bf
00000780: 9267 4eba 8068 ba3f 533d d0d9 680b 85bf
00000790: 43bb 6f16 efe4 c33f ad92 bc82 9602 c83f
000007a0: c060 4d2d 1c7e 7bbf e842 95e8 a4d9 adbf
000007b0: 7394 9746 5c73 c3bf 12e8 2c38 7492 c43f
000007c0: bd20 35ed 6379 a6bf 5adc 0044 47dc b43f
000007d0: 0852 410b 8edf c03f 503b 1018 6a1f 58bf
000007e0: 98d5 7700 ce00 b73f 97a5 da4b 98ba c23f
000007f0: ccd4 da33 a1dc acbf 37a4 1e7d 6f07 a6bf

encoder.2.bias f8 [32]
0.01159154163116741 0.010851031152177207 0.008988563974459043 0.00914161931473048 0.009405011454493252 0.010093054307721736 0.008639006913699128 0.009592687404631393
0.011331742791063835 0.009282344284745217 0.008849691916668909 0.010322879596599908 0.011660895440548822 0.01008524343775005 0.00922190840814869 0.008548944387083854
0.00839450894618791 0.009012618306635398 0.01002361606217165 0.011259525975957176 0.011686053986846258 0.010984117558358718 0.008949914660136973 0.009214098396068278
0.01107343762881899 0.009358223224769075 0.01123071892762714 0.00857819530571108 0.010421850235358864 0.00841772919796145 0.011192474549712183 0.011132675711113153
00000000: 928b ba61 4ebd 873f 756d 69bf 1039 863f
00000010: ce68 77a2 9868 823f 8ffb e95f d7b8 823f
00000020: 87a7 ec44 ef42 833f e5ea 58d1 aaab 843f
00000030: 4465 50e1 53b1 813f cc19 78b5 54a5 833f
00000040: b2ee 8dc5 1835 873f 9bc7 1029 9f02 833f
00000050: e5e6 e48a c91f 823f ecbe 2472 2924 853f
00000060: ff4e 79e4 aae1 873f ef0f e675 92a7 843f
00000070: a45b 2898 efe2 823f f878 76e4 1b82 813f
00000080: 156d 1eeb 2331 813f d8d1 0627 3575 823f
00000090: 95c2 65f9 4287 843f 947c aefe 3b0f 873f
000000a0: 27d8 8a9d dbee 873f 0631 824d d77e 863f
000000b0: 4e63 2336 5554 823f 1798 2f5a d7de 823f
000000c0: d1b5 c2a3 abad 863f f7a7 9775 672a 833f
000000d0: 2fae 0994 2100 873f e1b3 5fe2 7191 813f
000000e0: a6bc 650f 0d58 853f 7706 e57c 503d 813f
000000f0: c6f6 3781 14ec 863f e206 c570 bacc 863f

encoder.4.weight f8 [64, 32, 3]
-0.07498208869495271 0.02013514182203634 -0.003955359519559923 0.055720158312149666 -0.0764691612003203 -0.07291107020172924 0.047349810082599045 0.10809574876277134
0.12490857111305856 0.12028046645509484 0.13483772325899585 0.057101712035503085 0.02602432837102331 0.0739631805099124 -0.006203567674298551 0.012660801547577918
0.08978685170582687 -0.08786308730290926 -0.13035651149272373 0.032412893898291634 -0.11502971366829783 0.06050560390457656 0.020238026840004437 0.11164624283810409
-0.1291942856363687 0.0038964156345520015 0.10849687379780532 -0.05252905650232063 0.08390293725567637 -0.020780327073502747 0.09522857221998363 -0.06454715323983033
0.12310719092576616 0.040715628236701225 0.06543197537922335 -0.13930370812354853 0.03844593380838467 0.11080627209530741 0.1306535721832737 -0.06788845375871032
-0.04265562572959218 -0.004244844880858711 0.12391772776746265 -0.11537938704598437 -0.036656624040427396 0.05218784043353733 0.1035936836286375 -0.11804994710232865
0.09001076359998188 -0.030440333264104804 -0.0865493156073892 0.14207472021927475 0.11157291028437988 -0.0858401005177265 -0.028193286014022843 0.0358481467296742
-0.13971380154559296 0.07792460746026068 0.005903074051530712 -0.09927022373095461 -0.13114749414127935 0.05514303914137833 0.03797391423786627 -0.046030496921857844
0.01973901936050199 0.12895923124233435 -0.04649206704231511 0.004992885461404374 0.012963171299405846 0.0029081322807425576 0.000380930714411147 -0.05481902392288518
0.0006019669385001756 -0.05612645965297075 0.11566293725865438 0.040271561829839604 0.09826183147725308 0.026556055093220128 0.10344846389184746 0.06415452941743108
-0.0733348862214807 -0.05042606006682042 -0.09479024087067171 0.004385110095905135 0.0229055391049081 0.03119465127951311 0.13252696161254818 0.08396425884304533
-0.0611284119879618 0.09800597826048413 0.04544331105065462 -0.02335485907448144 0.08175092492677721 0.06859692390859176 -0.11403220147417091 -0.002462554883664755
-0.07417977259747642 -0.08922209401065018 -0.010093390480743493 -0.1089471149824626 -0.06202718610066744 -0.01149286566311709 0.05194759765973345 0.0465502180289427
0.08093274742431793 0.11170602738357359 -0.141189276758246 -0.10875299419238545 -0.0462208849205598 0.08267537644253599 -0.10566825034549948 0.09481671240315832
-0.1205322703441915 0.05535828906668896 -0.007558321238177666 0.11299144288415654 0.04316274914251614 0.07832046002425712 -0.03955966077291998 -0.07350249570679596
0.02220062926301154 0.06056064029253104 0.09437849551639928 0.14034489107415798 -0.03870699800771219 0.07211080210414658 0.10945906346905315 -0.14290084640675474
0.053838919868422486 -0.03595528170656972 -0.09345783362024801 0.10746001749535872 -0.13406299238494784 -0.018844485318529253 0.028105224523826494 0.03977202180112687
0.07688921306140133 -0.1166380005195024 0.05850192597130246 -0.07949710593319156 0.04253766582388381 0.0705002756334729 -0.02157700406179422 -0.06322146973904223
0.13812031758486604 0.14412886020281115 -0.11916649738476039 0.09231879530318202 0.10652354867053036 0.08578472074456385 0.00855707249077119 -0.03696988686270278
-0.0826407404279629 -0.10400403492279095 -0.06123022476036818 -0.12165365484634705 0.08273650741713605 -0.0642039664768596 -0.11669823035438229 -0.042176788252570444
0.07155610144616657 0.11742598885106105 0.10064485051460349 -0.07803664418924519 -0.025646966412752503 0.0763176681094373 0.07273301672495579 -0.10238466420953861
0.09649131390909851 0.03593765386296664 -0.07310053393307485 -0.00031642636481553284 0.08877348330374081 -0.09960187057409198 -0.04226908695179054 0.06768589664158936
-0.0015466020918609299 -0.10503197283096993 -0.10455853279933613 0.13218837223316324 0.07971877834888587 -0.13627056799599935 -0.13578487282598442 -0.0019691935266893507
-0.10030589956091224 -0.07225798786898217 0.09420301028752144 0.09635241221415247 -0.03429984902233518 0.11661446539859492 -0.08880440720470813 0.07158219468202275
0.022686639934285845 0.0207733184275524 0.11502961990765388 -0.059359587305404436 0.10859205307546008 -0.056604006802437115 -0.11162052344503534 -0.1079171726044859
-0.05855381714561424 -0.13549668304726642 -0.0029568444785507595 -0.03852038888266567 -0.03451758647871645 -0.04059562950232059 0.04391381156609512 -0.07735323852954427
-0.1255034029272271 -0.08175447647905203 0.09371729773065846 -0.0008536253753996189 -0.010872362705960524 -0.13837891260157004 -0.10381266301845479 0.07855409002553788
0.08617122719132936 -0.011303081581754887 0.0628511608098507 -0.04306280136097787 0.14283824969641215 -0.10360957268371965 -0.0022528227065543773 -0.030256269914603794
0.0093623486324427 -0.09907850274347164 0.0459433489797316 -0.12030263094192598 -0.032677308417401116 0.1398160876655667 0.08774621652346 0.05536790540369254
-0.07972696898291037 0.1327693516239104 0.12824700142396753 0.0662488042060126 0.03904879129711618 0.14224590184706087 0.0722785420696314 0.019106812607834485
-0.036771095778546606 -0.1159168832885301 0.04021345904957593 0.06763305854462223 0.09309948056576545 -0.14203101241235583 0.0016495070276378164 0.09312880346268927
-0.1130321563027331 -0.07566638183107566 0.1240562040757827 -0.09300273424619307 -0.11529645686970268 0.005658558316934338 0.0475005943695094 0.06740698198839928
00000000: 2808 bbb2 0632 b3bf bdfd 807e 4e9e 943f
00000010: 6aa6 7cbc 7e33 70bf c974 5b43 5a87 ac3f
00000020: 8e07 82a2 7b93 b3bf be64 08c6 4caa b2bf
00000030: 1a9b 8dfb 3b3e a83f fcd1 c5b9 29ac bb3f
00000040: 7ab1 eb13 02fa bf3f a9b2 c55d b3ca be3f
00000050: de0d d5cd 5c42 c13f a2e7 7983 6f3c ad3f
00000060: 0001 041d 1fa6 9a3f a3f1 6541 40ef b23f
00000070: 9c62 7984 e968 79bf db35 b404 e8ed 893f
00000080: bef4 af67 45fc b63f b8d8 7dfe 317e b6bf
00000090: 6348 d7ac 85af c0bf 3415 863e 6c98 a03f
000000a0: 8f09 465a 9672 bdbf ba61 fd2b 97fa ae3f
000000b0: 854f a7fd 46b9 943f 98ff b521 d994 bc3f
000000c0: 5cb3 d137 7089 c0bf f0d1 1a37 60eb 6f3f
000000d0: 3c08 ae7c 73c6 bb3f ddce 88a7 16e5 aabf
000000e0: 232d 8db3 a97a b53f 0038 b924 7047 95bf
000000f0: ea60 5453 e660 b83f 6308 3788 2986 b0bf
00000100: 50b8 edee f383 bf3f 69ea 6cc7 add8 a43f
00000110: 1ccf 5d62 26c0 b03f ec13 4d33 b4d4 c1bf
00000120: ff0c be78 2faf a33f 444d d7c2 cc5d bc3f
00000130: 7dfd d099 41b9 c03f 6f6f ab40 2361 b1bf
00000140: d67e ff4a f5d6 a5bf d9c0 09df 0a63 71bf
00000150: f6e7 277c 12b9 bf3f 37ba fee5 8089 bdbf
00000160: 26ed de32 a8c4 a2bf b462 d257 5db8 aa3f
00000170: ced5 419b 1d85 ba3f 215a 1976 8538 bebf
00000180: 432d f305 f20a b73f 070a 652f c02b 9fbf
00000190: 1761 0690 1828 b6bf aa0e 7722 812f c23f
000001a0: f07b cad0 0a90 bc3f 70b3 68e8 9df9 b5bf
000001b0: c687 9665 b3de 9cbf 73fe a633 b05a a23f
000001c0: 7f15 3850 24e2 c1bf e36f 98f8 ddf2 b33f
000001d0: 297e f45f d22d 783f 0f1c 64fc c569 b9bf
000001e0: c002 25eb 70c9 c0bf 84b4 6d5b b53b ac3f
000001f0: b767 811f 5171 a33f b8c7 cb2d 4f91 a7bf
00000200: f111 6f2a 7736 943f 1500 5a70 bc81 c03f
00000210: cebb f0e6 cecd a7bf 4e7c 4f7c 6b73 743f
00000220: 0a64 4466 6f8c 8a3f 9630 39a1 cbd2 673f
00000230: 4c40 dff5 f4f6 383f 0016 e535 3d11 acbf
00000240: fe75 3528 aab9 433f 08af 4c79 9bbc acbf
00000250: cf9d e214 169c bd3f b137 0962 799e a43f
00000260: 37ce a3f8 af27 b93f 226c 8bb0 8231 9b3f
00000270: e7a6 3c39 997b ba3f 82f6 bc65 6e6c b03f
00000280: e325 fa39 13c6 b2bf d6cc b4cd 71d1 a9bf
00000290: cbfd 8458 2c44 b8bf f768 3807 1ff6 713f
000002a0: 1c4c 69b5 8c74 973f f4f7 389c 7df1 9f3f
000002b0: 0069 fbba a4f6 c03f ad85 c381 ae7e b53f
000002c0: de7d b024 394c afbf d4f6 7077 eb16 b93f
000002d0: 36ac 917d 5844 a73f 44d9 b50f 56ea 97bf
000002e0: 346f faec a0ed b43f 8229 cb68 918f b13f
000002f0: 17bf 05e0 3631 bdbf f907 1416 5a2c 64bf
00000300: 6fb4 5411 72fd b2bf b83b db57 42d7 b6bf
00000310: a716 2af0 d7ab 84bf d2dd d747 f5e3 bbbf
00000320: c9d1 87ff 06c2 afbf a684 4851 9289 87bf
00000330: 00d0 1b22 e098 aa3f 36a9 1c20 6ed5 a73f
00000340: 4be5 5c2f 02b8 b43f 47e7 6026 c498 bc3f
00000350: d47c 1c7f 7d12 c2bf cdfb 6579 3cd7 bbbf
00000360: f680 408a 43aa a7bf 8953 01a6 362a b53f
00000370: 3c9f 750f 130d bbbf f5c3 e276 e845 b83f
00000380: ccad 3def 33db bebf 1338 35f2 eb57 ac3f
00000390: 717b 7d68 79f5 7ebf 6151 ead7 01ed bc3f
000003a0: 3cf3 f187 6d19 a63f a36f 6946 cf0c b43f
000003b0: 3566 85f2 2941 a4bf 7c2d 3c3f 0fd1 b2bf
000003c0: 5380 8a02 c3bb 963f 2e65 f6e2 cd01 af3f
000003d0: 3d49 b067 3029 b83f 167f a946 d2f6 c13f
000003e0: 6590 2355 67d1 a3bf 62c3 b980 da75 b23f
000003f0: f4b1 d959 8205 bc3f 29a1 f12e 934a c2bf
00000400: 3076 2c60 c690 ab3f 93ab 180e bb68 a2bf
00000410: ac37 f442 daec b7bf c828 c5ec 7f82 bb3f
00000420: 06d9 f2e3 f928 c1bf 48b5 9c00 f84b 93bf
00000430: 48cf b4b0 9dc7 9c3f c7ff dc99 ff5c a43f
00000440: 9b8e 83ef 02af b33f 6cbc b3ed fcdb bdbf
00000450: c379 99e5 f6f3 ad3f a615 1c1e ec59 b4bf
00000460: ba9e 1f37 7fc7 a53f 9d6a 345a 4e0c b23f
00000470: 080d 2a3b 4818 96bf 5b2a ef40 482f b0bf
00000480: 4a56 7833 edad c13f d58b 7d82 d072 c23f
00000490: e1e1 0b11 b281 bebf fa1e a25e 34a2 b73f
000004a0: f735 cb95 2045 bb3f 3d2a 18ca fcf5 b53f
000004b0: ba99 fad3 5e86 813f b435 068e b7ed a2bf
000004c0: 3a90 748d f127 b5bf d63a a528 02a0 babf
000004d0: bbb9 be69 9159 afbf b801 01a5 b124 bfbf
000004e0: 63b7 8a41 382e b53f cba5 4ad0 ab6f b0bf
000004f0: 8686 df6a efdf bdbf 12e5 632c 3298 a5bf
00000500: 1361 8a2b 8051 b23f 29d6 d02d a10f be3f
00000510: 7995 7865 dcc3 b93f 8ab1 aea2 35fa b3bf
00000520: f301 f0c7 3243 9abf 7013 a300 8e89 b33f
00000530: af50 2c88 a19e b23f 3754 64a0 e135 babf
00000540: 1a70 969d a7b3 b83f 4ea4 1290 6b66 a23f
00000550: c30c 9072 b7b6 b2bf f316 73e3 c0bc 34bf
00000560: 41a4 8ae7 dbb9 b63f 5074 bc18 827f b9bf
00000570: dfef 2d34 4ba4 a5bf 3cdf 79e8 dc53 b13f
00000580: 41cd e259 eb56 59bf 84e7 5718 60e3 babf
00000590: 8011 e416 59c4 babf 9392 d36f 8ceb c03f
000005a0: 99b2 e229 7368 b43f e49e 7960 5071 c1bf
000005b0: ad20 0a12 6661 c1bf 1bf5 7db9 b221 60bf
000005c0: 2cc1 35be a5ad b9bf 9fa4 c5de 7f7f b2bf
000005d0: c9a1 5e40 b01d b83f 18ba 593b 8daa b83f
000005e0: a009 9ef3 bf8f a1bf 1ba3 2013 72da bd3f
000005f0: d554 afb8 e2bb b6bf ff9b 22f1 3553 b23f
00000600: 96a8 4ba2 2a3b 973f 6959 1acd 9945 953f
00000610: 7d1e 93c7 9472 bd3f bb8d 5c3c 6164 aebf
00000620: 7289 9054 b0cc bb3f 9afb 134c 33fb acbf
00000630: 8e42 c2a1 2993 bcbf 8357 03b7 75a0 bbbf
00000640: 8e8b 6413 c4fa adbf 3ac6 338f f457 c1bf
00000650: 6b23 b6ca f338 68bf 77e3 f5c4 f1b8 a3bf
00000660: 8939 2002 4aac a1bf 3760 254a f3c8 a4bf
00000670: 85c5 0901 df7b a63f 4b5d b9fd 6bcd b3bf
00000680: a9f8 8dd9 7e10 c0bf 0b75 c782 dced b4bf
00000690: b49a d258 dbfd b73f ca1d 0289 baf8 4bbf
000006a0: 59d0 04d2 3f44 86bf 6a36 0a74 66b6 c1bf
000006b0: be2e 9378 7793 babf 0d71 a0ef 1e1c b43f
000006c0: 1498 a44a 510f b63f d0b8 e6ed 1126 87bf
000006d0: 6ca6 3180 0317 b03f b401 0ad7 530c a6bf
000006e0: 3d30 8815 8648 c23f 02a7 3a2e 2886 babf
000006f0: 2c94 25fb 8274 62bf b3f1 20e7 7ffb 9ebf
00000700: cf4e 8529 912c 833f 5915 0571 355d b9bf
00000710: fd5e acfa e285 a73f 42b1 8439 27cc bebf
00000720: ceb5 f285 14bb a0bf 3638 fd59 7ee5 c13f
00000730: 15e5 503a 8976 b63f 53ec e99d 2e59 ac3f
00000740: e40b 6494 fc68 b4bf 8a62 910b 96fe c03f
00000750: 5d87 76d2 656a c03f 35c4 767f aef5 b03f
00000760: 168e 2303 34fe a33f dc29 361c 1d35 c23f
00000770: ab41 64b6 d880 b23f 5234 207d bc90 933f
00000780: 6a27 9d3b a9d3 a2bf d74a c796 baac bdbf
00000790: 9b34 f4c6 db96 a43f fadd 936e 6650 b13f
000007a0: 00f7 4d18 5ed5 b73f 6017 aa7c 122e c2bf
000007b0: bd1a 3faf 8806 5b3f b917 300d 4ad7 b73f
000007c0: 0773 b7e6 acef bcbf a001 5f3b df5e b3bf
000007d0: 5313 5fbb 25c2 bf3f 86a6 06f6 06cf b7bf
000007e0: b79c 998f 1184 bdbf b5af 9eae 6d2d 773f
000007f0: f417 b776 ff51 a83f 4c88 297f 9541 b13f

encoder.4.bias f8 [64]
0.00893681168362047 0.008584622827325075 0.008688611495639416 0.01153374045822374 0.011071731270251236 0.009430875640761203 0.010720388876455583 0.009900428495277688
0.00835336448844391 0.011424309322879512 0.00900683846978567 0.011404983123075692 0.011464398006207806 0.011666027645191743 0.010548435674938645 0.011591271376629911
0.009552326955642725 0.010510258810026997 0.009072485659289097 0.009562623045712247 0.011158204271747907 0.008654202334218188 0.010964215808454468 0.009048850468084374
0.009143830094658079 0.009958208439035209 0.009346131616586116 0.011383748400560556 0.011635335723676189 0.009656940153833593 0.009686460834176347 0.010320154143240792
0.011079414121498743 0.009474709379195452 0.010892952976853765 0.011113286624741349 0.010298102973417397 0.008595839369499647 0.010253533429512594 0.009192454770633426
0.01004049708212831 0.0082510621165943 0.008883494147887114 0.01026553960120512 0.008177322897262064 0.008220242268716114 0.00840440954973101 0.009211826753919352
0.00955082720592209 0.011496470354915866 0.010083443119548468 0.011148484296097128 0.008766872198810697 0.00840006101878625 0.011578241579550392 0.008769491701605077
0.01050844371319906 0.010223539355131733 0.010028536292426 0.009817071211659692 0.009102576283991892 0.01079306367595594 0.010930920503780672 0.009153684785756304
00000000: b914 4b8f 764d 823f bbb8 5592 d094 813f
00000010: 5778 c5b1 55cb 813f 3a8a 8c70 009f 873f
00000020: de04 ba9d c6ac 863f d202 99b3 7e50 833f
00000030: 168c ff3c 92f4 853f 6b2e d404 ad46 843f
00000040: f7c2 509a 911b 813f ba86 5ed7 a065 873f
00000050: 7f3c 5865 2d72 823f 3e49 33ec 7e5b 873f
00000060: 4438 0a74 a57a 873f b8c1 aeb9 5be4 873f
00000070: aa89 fb11 6b9a 853f 627e da1b 2abd 873f
00000080: dc60 009f 2b90 833f 877a e40e 6786 853f
00000090: 46c1 9969 9894 823f 1965 f689 9195 833f
000000a0: e017 6fd3 1cda 863f f4ca fc5f 4bb9 813f
000000b0: 9fba 9622 6874 863f 1052 9d26 3488 823f
000000c0: a0e0 bb19 00ba 823f 594a 941c f864 843f
000000d0: 6c4a 198d 1024 833f 00be b0d8 5c50 873f
000000e0: 5a13 4a53 44d4 873f 1304 1f91 04c7 833f
000000f0: c063 f9c3 7ed6 833f a878 47a4 bb22 853f
00000100: 9344 7cca cdb0 863f 31ca 61f7 7967 833f
00000110: 7af1 5666 0b4f 863f 54af d514 90c2 863f
00000120: cb74 dafb 2b17 853f a013 ca07 b29a 813f
00000130: ec4f fcf5 cdff 843f 6bee e064 7ed3 823f
00000140: ce9b d3b4 1c90 843f 7494 95cf eee5 803f
00000150: 320e b766 8231 823f 395c e766 1906 853f
00000160: d4f2 4cb3 45bf 803f 8cb6 ac3d c6d5 803f
00000170: cf2a 44c1 5436 813f 61f0 2775 a6dd 823f
00000180: 5c53 fe53 628f 833f 86e5 8c21 768b 873f
00000190: 09b1 6fd3 a0a6 843f 6d18 9d3b 04d5 863f
000001a0: 4f8c 0eab 5df4 813f 9877 e11a 0d34 813f
000001b0: 5d52 6f47 55b6 873f a4cc 7c40 bdf5 813f
000001c0: 8fef a370 7385 853f 70f1 6f39 14f0 843f
000001d0: 9dc4 385b d789 843f 1b66 5ffe f81a 843f
000001e0: b3bc 971b 5fa4 823f 9b52 187c ac1a 863f
000001f0: 939d a150 f362 863f 897b 57c6 2abf 823f

encoder.6.weight f8 [128, 64, 3]
0.025603994016010004 0.07017675868779977 0.05052205110358044 0.04171424422624153 0.024540568856223317 0.09788226567592127 -0.035515998795235745 0.06315629696845296
-0.10230816443559458 0.016630693783362387 -0.08596747450932062 0.05686814903004141 -0.013802665570088253 -0.06775559316287005 -0.006024842303464074 -0.05671172138152458
-0.01759065848020412 -0.08208816270913386 -0.009006076170931635 0.03168861782497596 0.047667631715097254 -0.062254806801250874 -0.019366610165417963 -0.009496159919462252
-0.0002814634543801977 0.06029075783526952 -0.04575151268856342 0.09341846758927312 -0.10279956779240845 -0.04888270158651927 0.03152011916423558 0.10130971684938288
0.054136247266320686 0.08263716357157784 -0.06962968017620999 0.03701740108911846 0.00350169255072343 0.023248096423389087 0.05132436199042903 -0.008850798171879832
-0.05222424898252173 0.04949680717112039 0.09228719808819213 -0.033001779061686776 0.08806310070434091 -0.08362472705605495 -0.036031709802238354 -0.05566378816479018
0.04802241154025701 0.03447793183819377 -0.004375030991567757 -0.06527648849772244 0.011684292747494832 0.09640344465418559 0.021579189436843286 0.03994258095810286
-0.01772905905246783 -0.031851851525916734 -0.043662489363621625 -0.09198385481943232 -0.08606783301482618 -0.08451895422699347 0.07930249975040463 0.08094642644910027
0.05617670316794231 0.0017628436015069162 0.02430375623667413 0.07712998578239524 0.0270356951565877 -0.05982890347970457 -0.08150471816607087 0.08305273060581156
-0.03689443050371979 -0.07363217654387706 -0.0632979845943259 -0.03855874154576542 -0.08127174699156685 0.04301295910570796 0.05147274079675623 0.08095408712340668
0.09230309311446075 -0.07082341729946773 0.043505001506269944 0.024923050194356124 0.047460451521641814 -0.040707219273758186 0.009829941059001937 -0.03507017755494616
-0.06768446492215655 -0.0615320728395073 0.09430044472557887 -0.03169439377577247 0.07380762963802721 0.061432497115752355 0.0816366671581666 0.03596899963574242
0.07026728601106888 0.035783863795796636 -0.08430563399308358 -0.041038012496538934 0.05083986739868702 -0.05431006549292119 -0.04101975479927571 0.012647713196691205
0.09891506205703883 0.09046848848092401 0.039782311643225925 -0.07595166284813543 0.031187125842793414 -0.0019220943552811544 -0.047321381965387335 0.09096761678695472
0.018822574900682322 -0.007068766470019388 0.08717333986836458 0.016097810066687524 0.0983755726376217 0.07195609428987108 -0.08947599613474141 0.028213629976686992
0.072992397972918 0.011092978201240352 0.09196089917678626 -0.04731023969293242 0.004276859301794787 -0.10188235516982454 -0.07959565139512684 0.09475676315680819
-0.048764567831227776 0.04587088141622968 0.0757525991654778 0.032891938577653386 0.07844167127883644 -0.06322201780239611 0.003808007811942732 0.026024286058153236
0.010257899747605876 -0.027214496289630654 0.07958753010915319 0.09826910671963944 0.07209129066695094 -0.02284401800231473 0.04186513100103008 -0.01642206419069758
0.047889282679134025 -0.02173278488601798 -0.011436375496963663 0.06552415259753878 0.05767469449779237 0.02348508464449118 0.018268778862387158 0.022853505872499163
0.04143181854382949 0.03573270911414626 0.0983731043952775 0.08644589516257696 -0.07497625138585631 0.07990661755744237 0.03274349537342667 -0.09130972252309934
0.042584289100147985 0.003457006771009556 -0.0952952841413388 -0.0355889262014519 -0.04443645788022854 -0.07180159741976094 0.06739402469389687 -0.05842967137384786
-0.013337216845203894 -0.046963552998710245 -0.011165507779929877 -0.012863668803696 0.00296390454352134 -0.011299396585022185 -0.012618484586264874 -0.054911871507041514
-0.01057229042448221 0.09662937969848606 0.0851301054833292 -0.035544608375910655 -0.019794930567003488 0.07048186170002266 -0.06368702030425091 -0.014933641320580535
-0.08346087636889657 -0.05950747575741525 0.004117291339366841 -0.09042945599815433 0.016336455610011708 -0.09881915558115309 -0.012565677246547525 0.027679453214308543
-0.056395253370123806 -0.07547469937727441 -0.06012644233119996 -0.03229384704876462 0.0830056165063881 0.06364420467994741 0.007861807014688742 0.05893280806148916
-0.09380067104997387 -0.0012683984185557823 0.0456552290535226 0.08930442906398521 -0.01231771006195151 0.019918716873647397 0.06697437733116139 -0.04255145163050572
0.0303812347302212 0.06031860305599395 -0.05828973972618371 -0.07305151928287223 -0.077813158622427 -0.052965102033398805 0.09697490675180288 0.018810386397182726
0.01869412055510699 -0.05617388473558063 -0.07040552477428187 -0.03795619550882535 -0.09506707890391074 0.027223281642475682 0.10011957130730076 -0.0008657797962485243
0.0845272927535299 -0.028521859563292333 0.07538499306563533 -0.07845700137191411 0.01845156582117803 -0.04526494371972761 0.09515784860869643 -0.06287974036652111
-0.0268612305177149 0.008846058596772672 -0.09476511234447493 -0.05224096902145855 0.07768819364383044 -0.06943673895381999 -0.014131624912633757 0.04390189954465953
-0.09608513678226012 -0.05719098311378032 -0.00529000527670285 -0.0528734203306313 -0.016255514806519957 -0.054454210495128545 -0.08102581331855915 0.0801525083466601
0.013154613708797865 -0.0785314102686817 -0.049203246940122354 -0.06953018315055152 0.009604514213615335 -0.06382002027916311 -0.08186673151431827 -0.08364765103931157
00000000: c470 c8f3 ee37 9a3f c4dd 80a3 1af7 b13f
00000010: c1f5 6eba 06de a93f e747 75c5 915b a53f
00000020: d59e a6b2 2921 993f 2fbc efe9 cf0e b93f
00000030: 56e1 9e2a 272f a2bf 9216 04d6 022b b03f
00000040: f35a 5d2c de30 babf eb27 a3f7 a207 913f
00000050: ef88 89e3 f601 b6bf 0a42 8970 d21d ad3f
00000060: 84ec c469 9244 8cbf 886f c138 6e58 b1bf
00000070: cece 824a 81ad 78bf b05b 4499 5109 adbf
00000080: 3ce2 8c1b 4903 92bf fe75 39d6 ba03 b5bf
00000090: 029b f414 c771 82bf f96b 6d92 7d39 a03f
000000a0: 4196 964e e467 a83f f5d8 75ae dcdf afbf
000000b0: 80ed 2d35 d7d4 93bf 6b5a 5502 b972 83bf
000000c0: 2391 e254 2c72 32bf 949c 4e22 6ede ae3f
000000d0: 58d5 7a05 be6c a7bf d36b 23cf 45ea b73f
000000e0: ac19 b68d 1251 babf ebf6 4e49 2707 a9bf
000000f0: a0ec f3b1 6723 a03f 3397 a200 6fef b93f
00000100: dcf3 1207 bfb7 ab3f 8b60 f98a b527 b53f
00000110: 2211 302f 40d3 b1bf 4311 1fde f1f3 a23f
00000120: 2958 8ddf 94af 6c3f 1db2 5457 59ce 973f
00000130: 9452 79d0 2f47 aa3f bda4 8805 5e20 82bf
00000140: 9c4d e002 23bd aabf e3dd 1c40 a557 a93f
00000150: 94d5 a041 22a0 b73f 003d 8ff3 9be5 a0bf
00000160: 836e 82a9 4d8b b63f 08ba d71b 6e68 b5bf
00000170: 506c 708e bf72 a2bf 697e 7acb f67f acbf
00000180: c2b6 14be 6496 a83f 5a86 5b6b 17a7 a13f
00000190: ecbe 7170 8deb 71bf d4a1 4bbf f5b5 b0bf
000001a0: c2ac d139 efed 873f e7ef 026a e5ad b83f
000001b0: 3129 9fe3 da18 963f fda2 dd9d 5a73 a43f
000001c0: e9dc 4603 9127 92bf 5fe1 3dc9 e24e a0bf
000001d0: 53e5 c107 ee5a a6bf 13a0 3500 418c b7bf
000001e0: d448 09a0 8a08 b6bf fd0b 4cc0 08a3 b5bf
000001f0: f245 eb2a 2b4d b43f 54b3 53ae e7b8 b43f
00000200: fe8b ce5d 31c3 ac3f 0bac 73e7 e6e1 5c3f
00000210: 3f6d d378 15e3 983f eef0 796e cabe b33f
00000220: acb3 16ca 3eaf 9b3f dc0b 9adf e4a1 aebf
00000230: 6133 fe42 7edd b4bf 32a3 cb99 f142 b53f
00000240: e306 d6a8 d3e3 a2bf b572 30ee 8ed9 b2bf
00000250: 583f bcf5 4b34 b0bf 0df5 d3ab f8bd a3bf
00000260: 9be5 6aa7 39ce b4bf 188f 5369 cb05 a63f
00000270: 3011 b794 a25a aa3f 502d ac34 68b9 b43f
00000280: 5a0a 3fee 2ca1 b73f c098 17c5 7b21 b2bf
00000290: c61c 5d9d 4946 a63f 9a5b 0196 6d85 993f
000002a0: b216 477e bc4c a83f 4ed9 fb9e 93d7 a4bf
000002b0: 88cd f55a b821 843f 15aa 53e3 b7f4 a1bf
000002c0: 3ab5 49e3 c453 b1bf 6965 00c1 2181 afbf
000002d0: d138 18ee 1224 b83f d58b 7761 3f3a a0bf
000002e0: 6f98 7d8b 0ee5 b23f ac2b 0c8c 1474 af3f
000002f0: 8548 99ff 23e6 b43f 62f0 355a 876a a23f
00000300: 9e6e 656f 09fd b13f 4a76 7439 4352 a23f
00000310: 4a6c ded4 0d95 b5bf d085 2133 ef02 a5bf
00000320: 89e4 9edf ae07 aa3f 637c 4566 87ce abbf
00000330: e6a5 b492 8a00 a5bf b54d 6454 0be7 893f
00000340: 19e6 9d5c 7f52 b93f 5618 585f f128 b73f
00000350: 2712 efde 585e a43f 8472 0274 9171 b3bf
00000360: 4c42 3496 84ef 9f3f 901c 5419 d97d 5fbf
00000370: eabe e217 823a a8bf f653 185b a749 b73f
00000380: 8af0 7f9e 3946 933f 5f1c fd8c 23f4 7cbf
00000390: 0556 d1f3 fd50 b63f bd35 18bf f17b 903f
000003a0: 0430 343b 242f b93f 3b0f b9ef b66b b23f
000003b0: 16fd 2c1d e6e7 b6bf 268c 34a8 08e4 9c3f
000003c0: 077a 263a a1af b23f 8b6f b754 eab7 863f
000003d0: e69c 79de bf8a b73f 697f 7e38 0c39 a8bf
000003e0: 0bf7 4aad 9c84 713f 256d 7e47 f614 babf
000003f0: d258 a56f 6160 b4bf bb53 d5ae fa41 b83f
00000400: 16d0 1360 abf7 a8bf 06f5 0a5f 637c a73f
00000410: 86b2 00b8 8564 b33f a172 fc50 36d7 a03f
00000420: 6c43 c9dc c014 b43f 2032 d972 512f b0bf
00000430: 7492 7ca0 f831 6f3f 8708 1646 1ca6 9a3f
00000440: dd6c 88ff 1702 853f 1710 2aee 1dde 9bbf
00000450: 87fc fc2e d95f b43f 7b67 9107 2a28 b93f
00000460: 26b1 bd27 9374 b23f 61ad ea18 6c64 97bf
00000470: 02ff fbb0 586f a53f ff05 8712 f2d0 90bf
00000480: 8b1e dfad f184 a83f 6e86 5881 1e41 96bf
00000490: 5031 f455 f46b 87bf b329 81dc 30c6 b03f
000004a0: 9d80 599d 8987 ad3f c2af f759 790c 983f
000004b0: 33da 01ff 0cb5 923f 2b0a 49d1 e866 973f
000004c0: 10b1 5123 8d36 a53f eee1 15c2 8e4b a23f
000004d0: aa07 2fd2 fa2e b93f 29c2 9874 5121 b63f
000004e0: 32ce adc3 a431 b3bf 63a8 2495 c274 b43f
000004f0: 7d39 9263 c1c3 a03f d925 0bf0 1260 b7bf
00000500: fe5f 04a2 9bcd a53f d6cf c060 de51 6c3f
00000510: af9e d990 4565 b8bf db1d 4534 b638 a2bf
00000520: c0fa b01a 60c0 a6bf 1ceb b7e8 9661 b2bf
00000530: ff8f 011c bc40 b13f 385a 556f 7eea adbf
00000540: e1c5 5bf1 8a50 8bbf 4083 7758 9b0b a8bf
00000550: 4973 1016 f1dd 86bf 642f 8c66 4458 8abf
00000560: db08 a722 c247 683f afac 6056 2324 87bf
00000570: 6b15 fc54 b8d7 89bf 17de 91a8 681d acbf
00000580: 5f8b efcc eca6 85bf 8044 a3f9 b3bc b83f
00000590: c6b7 f42a 16cb b53f ae1d 0c25 e732 a2bf
000005a0: 70c1 a54d 1f45 94bf 8e79 f66a 190b b23f
000005b0: 1aee 62e5 ca4d b0bf 921d a868 8795 8ebf
000005c0: 1afa 7f26 b15d b5bf c5c0 7d8c c377 aebf
000005d0: 4734 69fa 4add 703f c86d 1b84 6226 b7bf
000005e0: d86a 4ffa 80ba 903f c27b 7051 364c b9bf
000005f0: adac 9ba6 08bc 89bf c274 4ea9 0058 9c3f
00000600: 49a6 bfb1 d6df acbf 1436 8055 4f52 b3bf
00000610: 38ea df9e e4c8 aebf 0479 dfb1 d188 a0bf
00000620: 3c7d 4728 db3f b53f 6c28 ae91 fc4a b03f
00000630: 7cd9 1fe0 d919 803f 7132 92e6 702c ae3f
00000640: 4da3 801e 5203 b8bf 97b4 766e 0cc8 54bf
00000650: e13f 5a47 1f60 a73f abbf 37b2 a7dc b63f
00000660: 5183 050f 073a 89bf 35d0 3376 9265 943f
00000670: 57ab 4e98 3b25 b13f 68fa 4cca 4dc9 a5bf
00000680: f147 5026 421c 9f3f 678a ee76 14e2 ae3f
00000690: 85f3 a11b 27d8 adbf 8038 3e1e 81b3 b2bf
000006a0: 3956 7b2b 90eb b3bf e520 20ea 3d1e abbf
000006b0: c119 08f5 58d3 b83f cba5 9aa9 0743 933f
000006c0: be8b a531 8d24 933f 443d a8cb d2c2 acbf
000006d0: 81fe 5cb2 1806 b2bf 712f c894 fe6e a3bf
000006e0: 5f8c d1ea 5056 b8bf e37d 6081 6be0 9b3f
000006f0: 5853 74ac 6fa1 b93f 10ce 88f4 af5e 4cbf
00000700: a1ee fea5 94a3 b53f 3e89 2e98 d534 9dbf
00000710: ab7a d34f 6e4c b33f 6edb 080f c215 b4bf
00000720: e43c 0c9f f7e4 923f f8ee dc79 f72c a7bf
00000730: f568 bbc7 435c b83f a086 74fc e218 b0bf
00000740: 7465 6aaa 8281 9bbf 7d1d f9e2 e11d 823f
00000750: c83f 52c2 8642 b8bf 4bc2 ea0a 54bf aabf
00000760: 1b4e fc9a 5fe3 b33f 6292 f22a 9bc6 b1bf
00000770: 817a b696 0af1 8cbf 339d 8d4d 4f7a a63f
00000780: dd8a 1c18 0999 b8bf ac15 33f4 2248 adbf
00000790: eab2 8bfa f8aa 75bf 57a2 4b96 3912 abbf
000007a0: b703 e521 49a5 90bf ef82 691a 6ce1 abbf
000007b0: 66c3 5592 1bbe b4bf d090 0af2 df84 b43f
000007c0: 71cc 5d5d cef0 8a3f 2710 d06e a21a b4bf
000007d0: 31ff ed00 2b31 a9bf 236d b7e6 bacc b1bf
000007e0: 5414 8813 88ab 833f 08d7 ed43 8256 b0bf
000007f0: 4302 7cd6 37f5 b4bf 4edf 99b5 ee69 b5bf
